edge-visao-devkit-fw-main/edge-visao-devkit-fw-main/examples/image_classification/main/mnist_cnn.tflite (tflite, 7392 bytes, 5 tensors)

sequential_1/conv2d_3/Conv2D/ReadVariableOp i1 [1, 3, 3, 8]
000000 a5 b8 d3 08 40 81 7f 41 9c 3b 85 f8 0c d8 fa 45
       -91 -72 -45 8 64 -127 127 65 -100 59 -123 -8 12 -40 -6 69
000010 cd 1b 88 7f df 10 d1 71 dd 82 2c fe 23 bc 1b 7f
       -51 27 -120 127 -33 16 -47 113 -35 -126 44 -2 35 -68 27 127
000020 fe d6 27 25 dd fa 4e 42 81 81 f0 3f d9 fa 57 19
       -2 -42 39 37 -35 -6 78 66 -127 -127 -16 63 -39 -6 87 25
000030 b8 c3 31 eb 81 a5 31 6d e0 c2 6d 31 aa c7 6e 5c
       -72 -61 49 -21 -127 -91 49 109 -32 -62 109 49 -86 -57 110 92
000040 cd b1 7f 66 d6 00 70 48
       -51 -79 127 102 -42 0 112 72

sequential_1/conv2d_4/Conv2D/ReadVariableOp i1 [8, 3, 3, 8]
000000 05 b8 b9 4f 15 d2 21 53 aa ba e4 1b 16 e3 dc 3f
       5 -72 -71 79 21 -46 33 83 -86 -70 -28 27 22 -29 -36 63
000010 fe d2 fe d1 fe b4 f8 25 21 f0 d5 d0 7f 2e cb e6
       -2 -46 -2 -47 -2 -76 -8 37 33 -16 -43 -48 127 46 -53 -26
000020 42 19 e6 c8 2d 1b c5 f1 e5 e0 11 14 06 22 37 e9
       66 25 -26 -56 45 27 -59 -15 -27 -32 17 20 6 34 55 -23
000030 b5 e4 5a e7 f2 0e 2c e8 f3 d9 45 02 d1 df f1 11
       -75 -28 90 -25 -14 14 44 -24 -13 -39 69 2 -47 -33 -15 17
000040 9d f6 f7 45 b7 dc 2e 44 15 7f fb fe 3f 3e df de
       -99 -10 -9 69 -73 -36 46 68 21 127 -5 -2 63 62 -33 -34
000050 32 47 10 cf 62 f9 02 d3 0c ed d7 b1 39 b6 c5 e2
       50 71 16 -49 98 -7 2 -45 12 -19 -41 -79 57 -74 -59 -30
000060 06 1e 41 0a df f3 d4 e7 d6 f5 41 d8 b4 a0 dc c9
       6 30 65 10 -33 -13 -44 -25 -42 -11 65 -40 -76 -96 -36 -55
000070 c3 ce 22 eb b7 cb f0 ed 04 d9 2a 21 d8 d8 01 2f
       -61 -50 34 -21 -73 -53 -16 -19 4 -39 42 33 -40 -40 1 47
000080 d6 f8 f9 e3 01 dc 1a 16 c4 dc 10 41 e6 d9 2c 27
       -42 -8 -7 -29 1 -36 26 22 -60 -36 16 65 -26 -39 44 39
000090 0c 06 a9 ff b1 5d b4 fd 2b cc d2 d2 fd f8 e6 e6
       12 6 -87 -1 -79 93 -76 -3 43 -52 -46 -46 -3 -8 -26 -26
0000a0 2c d6 9b f6 f2 4a ec c3 dc 2a c2 ca dd 69 fe b2
       44 -42 -101 -10 -14 74 -20 -61 -36 42 -62 -54 -35 105 -2 -78
0000b0 13 e7 a6 c9 2d aa be f2 05 3d 05 02 11 0b 01 d6
       19 -25 -90 -55 45 -86 -66 -14 5 61 5 2 17 11 1 -42
0000c0 4a 49 b8 9b 01 2f e6 ec 47 35 bd 01 46 2a b2 ee
       74 73 -72 -101 1 47 -26 -20 71 53 -67 1 70 42 -78 -18
0000d0 45 2f 7f 3b 38 2a 0b 39 1b 18 7f 1b f5 00 1b 3f
       69 47 127 59 56 42 11 57 27 24 127 27 -11 0 27 63
0000e0 d1 fc 44 44 be e1 5d 27 ae e1 55 36 07 cc 11 4d
       -47 -4 68 68 -66 -31 93 39 -82 -31 85 54 7 -52 17 77
0000f0 ed 1a fa 12 b3 11 e0 fe de 2d 1a e7 22 f7 44 ec
       -19 26 -6 18 -77 17 -32 -2 -34 45 26 -25 34 -9 68 -20

sequential_1/conv2d_5/Conv2D/ReadVariableOp i1 [8, 3, 3, 8]
000000 f2 57 b8 3e cd de e8 38 26 f0 1a e7 e8 c9 10 1b
       -14 87 -72 62 -51 -34 -24 56 38 -16 26 -25 -24 -55 16 27
000010 f8 07 81 f1 17 08 04 ba 19 12 dd f1 9d d8 ee 93
       -8 7 -127 -15 23 8 4 -70 25 18 -35 -15 -99 -40 -18 -109
000020 d5 f0 f9 04 f9 d7 d4 1f 61 58 54 1c c4 15 2e c0
       -43 -16 -7 4 -7 -41 -44 31 97 88 84 28 -60 21 46 -64
000030 ab a7 1a 12 af 8b da 87 b7 af 91 32 a5 bb 8d 01
       -85 -89 26 18 -81 -117 -38 -121 -73 -81 -111 50 -91 -69 -115 1
000040 15 3e e3 39 1d 13 41 98 25 1a 14 00 23 04 07 17
       21 62 -29 57 29 19 65 -104 37 26 20 0 35 4 7 23
000050 07 28 f6 06 0d 07 03 1f f5 1c f7 15 14 02 f8 04
       7 40 -10 6 13 7 3 31 -11 28 -9 21 20 2 -8 4
000060 f2 23 26 23 ec f0 de f1 05 24 05 14 d7 e6 f3 de
       -14 35 38 35 -20 -16 -34 -15 5 36 5 20 -41 -26 -13 -34
000070 2d fe f1 f6 f9 01 0a e1 01 28 7f 02 ee f2 02 14
       45 -2 -15 -10 -7 1 10 -31 1 40 127 2 -18 -14 2 20
000080 04 3d fd 1d e9 12 f4 08 f9 22 0e 09 0a fe f7 1f
       4 61 -3 29 -23 18 -12 8 -7 34 14 9 10 -2 -9 31
000090 03 35 1e ed c6 d9 cc 68 2f 36 05 fb d4 d9 cd 5b
       3 53 30 -19 -58 -39 -52 104 47 54 5 -5 -44 -39 -51 91
0000a0 d0 7f 3b e8 fb ed b5 6a 28 08 e0 da 08 d0 12 d4
       -48 127 59 -24 -5 -19 -75 106 40 8 -32 -38 8 -48 18 -44
0000b0 1e e4 f2 fa d6 15 e2 26 47 ea 01 5e fd c2 1a ff
       30 -28 -14 -6 -42 21 -30 38 71 -22 1 94 -3 -62 26 -1
0000c0 f0 06 ec cb 11 e1 2a 0a fe c7 fa c6 d5 2e 0c e4
       -16 6 -20 -53 17 -31 42 10 -2 -57 -6 -58 -43 46 12 -28
0000d0 e1 dd 03 05 12 f1 1e 9e 11 00 24 4c 07 ff 1f f5
       -31 -35 3 5 18 -15 30 -98 17 0 36 76 7 -1 31 -11
0000e0 2f bb 91 43 ff 27 d8 02 4a e5 b5 2a 36 be 7b db
       47 -69 -111 67 -1 39 -40 2 74 -27 -75 42 54 -66 123 -37
0000f0 2c 1b 3b 3a 11 00 b0 4b 6c 65 e4 13 e1 2a d9 5b
       44 27 59 58 17 0 -80 75 108 101 -28 19 -31 42 -39 91

sequential_1/dense_2/MatMul/ReadVariableOp/transpose i1 [64, 8] scale=0.0047946763 zero_point=0
000000 e2 39 c7 0f f7 28 bb fd 14 ee 20 e7 ed ff 09 28
       -0.14384028 0.27329656 -0.27329656 0.07192014 -0.043152086 0.19178705 -0.33083266 -0.014384029 0.095893525 -0.08630417 0.15342964 -0.11986691 -0.09109885 -0.0047946763 0.043152086 0.19178705
000010 c0 eb 05 28 0b 4c 98 26 4b 43 56 eb 24 35 20 f2
       -0.30685928 -0.100688204 0.023973381 0.19178705 0.05274144 0.3643954 -0.49864635 0.1821977 0.35960072 0.32124332 0.41234216 -0.100688204 0.17260835 0.25411785 0.15342964 -0.06712547
000020 50 dd c4 0f 23 11 00 e0 bf 0b fa cf 34 b7 f3 4a
       0.3835741 -0.16781367 -0.28768057 0.07192014 0.16781367 0.0815095 0.0 -0.15342964 -0.31165397 0.05274144 -0.028768059 -0.23493914 0.24932317 -0.35001138 -0.062330794 0.35480604
000030 db dd 55 f3 34 ee 27 e3 fd 4d e9 2d cf ef 0f e4
       -0.17740302 -0.16781367 0.40754747 -0.062330794 0.24932317 -0.08630417 0.18699238 -0.13904561 -0.014384029 0.36919007 -0.110277556 0.21576044 -0.23493914 -0.0815095 0.07192014 -0.13425094
000040 c4 e5 aa f3 40 39 14 02 39 ee e3 11 e9 d6 e4 00
       -0.28768057 -0.12945627 -0.41234216 -0.062330794 0.30685928 0.27329656 0.095893525 0.009589353 0.27329656 -0.08630417 -0.13904561 0.0815095 -0.110277556 -0.20137641 -0.13425094 0.0
000050 bf 16 07 df 55 00 f8 e2 c7 ee 25 41 fc f6 cf a8
       -0.31165397 0.10548288 0.033562735 -0.15822431 0.40754747 0.0 -0.03835741 -0.14384028 -0.27329656 -0.08630417 0.17740302 0.31165397 -0.019178705 -0.047946762 -0.23493914 -0.4219315
000060 14 13 e9 2c ed 28 19 bb 12 1d df df 02 e0 d7 0c
       0.095893525 0.09109885 -0.110277556 0.21096575 -0.09109885 0.19178705 0.11986691 -0.33083266 0.08630417 0.13904561 -0.15822431 -0.15822431 0.009589353 -0.15342964 -0.19658174 0.057536118
000070 09 f8 ec ff db be 1f f8 d5 b8 f7 c8 d4 22 e4 d5
       0.043152086 -0.03835741 -0.095893525 -0.0047946763 -0.17740302 -0.31644863 0.14863497 -0.03835741 -0.20617108 -0.3452167 -0.043152086 -0.26850188 -0.21096575 0.163019 -0.13425094 -0.20617108
000080 eb 05 d0 57 02 d9 d5 40 f1 e1 fd 27 c8 2e ce 36
       -0.100688204 0.023973381 -0.23014447 0.41713685 0.009589353 -0.18699238 -0.20617108 0.30685928 -0.07192014 -0.14863497 -0.014384029 0.18699238 -0.26850188 0.22055511 -0.23973382 0.25891253
000090 2f c0 e7 d4 d6 11 08 19 38 f0 33 3c 26 ff 05 53
       0.22534978 -0.30685928 -0.11986691 -0.21096575 -0.20137641 0.0815095 0.03835741 0.11986691 0.26850188 -0.07671482 0.24452849 0.28768057 0.1821977 -0.0047946763 0.023973381 0.39795813
0000a0 20 e6 12 13 0b 29 46 0c fa a0 06 2d 18 0d 90 2e
       0.15342964 -0.12466159 0.08630417 0.09109885 0.05274144 0.19658174 0.33562735 0.057536118 -0.028768059 -0.46028894 0.028768059 0.21576044 0.115072235 0.062330794 -0.53700376 0.22055511
0000b0 5c e7 23 34 ec 48 ef 20 bf e0 9f 22 ff fa ec 0d
       0.44111022 -0.11986691 0.16781367 0.24932317 -0.095893525 0.3452167 -0.0815095 0.15342964 -0.31165397 -0.15342964 -0.4650836 0.163019 -0.0047946763 -0.028768059 -0.095893525 0.062330794
0000c0 f5 e6 0c dc 42 fd 0d 19 06 e5 e4 ca ef 13 cd 3e
       -0.05274144 -0.12466159 0.057536118 -0.17260835 0.31644863 -0.014384029 0.062330794 0.11986691 0.028768059 -0.12945627 -0.13425094 -0.25891253 -0.0815095 0.09109885 -0.24452849 0.29726994
0000d0 de 0c 26 43 e1 ea 5e db e2 03 26 1c 06 e3 1a 02
       -0.163019 0.057536118 0.1821977 0.32124332 -0.14863497 -0.10548288 0.45069957 -0.17740302 -0.14384028 0.014384029 0.1821977 0.13425094 0.028768059 -0.13904561 0.12466159 0.009589353
0000e0 25 3c 28 c3 31 27 32 ee f1 d3 d7 e5 45 28 1f ad
       0.17740302 0.28768057 0.19178705 -0.29247525 0.23493914 0.18699238 0.23973382 -0.08630417 -0.07192014 -0.21576044 -0.19658174 -0.12945627 0.33083266 0.19178705 0.14863497 -0.39795813
0000f0 c3 ca cb e9 43 20 31 38 cb 3f 0f d1 e7 e6 3d 0d
       -0.29247525 -0.25891253 -0.25411785 -0.110277556 0.32124332 0.15342964 0.23493914 0.26850188 -0.25411785 0.3020646 0.07192014 -0.22534978 -0.11986691 -0.12466159 0.29247525 0.062330794

sequential_1/dense_3/MatMul/ReadVariableOp/transpose i1 [10, 64] scale=0.006087529 zero_point=0
000000 06 0c 0d 0d 3a 04 21 b9 e7 e8 30 37 e2 f7 e5 c9
       0.036525175 0.07305035 0.07913788 0.07913788 0.3530767 0.024350116 0.20088845 -0.43221456 -0.15218823 -0.1461007 0.2922014 0.3348141 -0.18262587 -0.054787762 -0.16436328 -0.3348141
000010 c3 d2 11 0d d1 23 d5 f2 d3 f9 f1 09 fe e9 2c 5d
       -0.37133926 -0.28002635 0.10348799 0.07913788 -0.28611386 0.21306351 -0.26176375 -0.0852254 -0.2739388 -0.0426127 -0.09131294 0.054787762 -0.012175058 -0.14001317 0.26785126 0.5661402
000020 33 d0 09 ea 05 81 e6 dc 2a 08 ce 20 fc db 24 aa
       0.31046396 -0.2922014 0.054787762 -0.13392563 0.030437645 -0.7731162 -0.15827575 -0.21915105 0.2556762 0.048700232 -0.30437645 0.19480093 -0.024350116 -0.22523858 0.21915105 -0.5235275
000030 cc 17 2d cc 2d 18 0e cc 1e ef 10 ff e0 be 2e 1d
       -0.3165515 0.14001317 0.2739388 -0.3165515 0.2739388 0.1461007 0.0852254 -0.3165515 0.18262587 -0.10348799 0.097400464 -0.006087529 -0.19480093 -0.4017769 0.28002635 0.17653835
000040 1c e5 f9 19 35 d8 8d f9 fc d3 17 d9 2b 24 e8 12
       0.1704508 -0.16436328 -0.0426127 0.15218823 0.32263905 -0.24350116 -0.70006585 -0.0426127 -0.024350116 -0.2739388 0.14001317 -0.23741363 0.26176375 0.21915105 -0.1461007 0.109575525
000050 5f 23 e9 16 f5 67 20 e7 c5 f7 c7 fd 21 f6 d6 37
       0.57831526 0.21306351 -0.14001317 0.13392563 -0.066962816 0.6270155 0.19480093 -0.15218823 -0.3591642 -0.054787762 -0.34698915 -0.018262587 0.20088845 -0.06087529 -0.2556762 0.3348141
000060 dc 31 ca d4 ff f6 00 df f4 e1 1d de 11 e7 1d 1e
       -0.21915105 0.2982889 -0.32872656 -0.26785126 -0.006087529 -0.06087529 0.0 -0.20088845 -0.07305035 -0.1887134 0.17653835 -0.20697598 0.10348799 -0.15218823 0.17653835 0.18262587
000070 07 f7 f1 c3 12 fe 16 e1 1b ef dd ce 5a d6 e8 1e
       0.0426127 -0.054787762 -0.09131294 -0.37133926 0.109575525 -0.012175058 0.13392563 -0.1887134 0.16436328 -0.10348799 -0.21306351 -0.30437645 0.5478776 -0.2556762 -0.1461007 0.18262587
000080 3c f9 28 18 15 de 0a 37 d9 2e 16 25 07 f0 d7 d7
       0.36525175 -0.0426127 0.24350116 0.1461007 0.1278381 -0.20697598 0.06087529 0.3348141 -0.23741363 0.28002635 0.13392563 0.22523858 0.0426127 -0.097400464 -0.24958868 -0.24958868
000090 ff 1a 28 d3 d3 a1 e4 31 b9 fc 13 ef 17 c3 be 22
       -0.006087529 0.15827575 0.24350116 -0.2739388 -0.2739388 -0.57831526 -0.1704508 0.2982889 -0.43221456 -0.024350116 0.11566305 -0.10348799 0.14001317 -0.37133926 -0.4017769 0.20697598
0000a0 32 15 e1 d2 25 69 30 27 cd 14 1b 08 08 e6 f1 05
       0.30437645 0.1278381 -0.1887134 -0.28002635 0.22523858 0.63919055 0.2922014 0.23741363 -0.31046396 0.12175058 0.16436328 0.048700232 0.048700232 -0.15827575 -0.09131294 0.030437645
0000b0 0b 06 06 d7 06 01 c5 d2 d0 1c 44 ed c9 da 38 d3
       0.066962816 0.036525175 0.036525175 -0.24958868 0.036525175 0.006087529 -0.3591642 -0.28002635 -0.2922014 0.1704508 0.41395196 -0.11566305 -0.3348141 -0.2313261 0.3409016 -0.2739388
0000c0 f8 f7 b4 0e 1c f8 ec fd ce 2b e5 25 1a f1 e0 d1
       -0.048700232 -0.054787762 -0.4626522 0.0852254 0.1704508 -0.048700232 -0.12175058 -0.018262587 -0.30437645 0.26176375 -0.16436328 0.22523858 0.15827575 -0.09131294 -0.19480093 -0.28611386
0000d0 b6 e4 cc e1 0d e9 d7 fb d5 1c 2c e8 0e df dd d7
       -0.45047715 -0.1704508 -0.3165515 -0.1887134 0.07913788 -0.14001317 -0.24958868 -0.030437645 -0.26176375 0.1704508 0.26785126 -0.1461007 0.0852254 -0.20088845 -0.21306351 -0.24958868
0000e0 1f 02 f8 02 11 e2 ed f4 ed f7 33 01 0f df ce fc
       0.1887134 0.012175058 -0.048700232 0.012175058 0.10348799 -0.18262587 -0.11566305 -0.07305035 -0.11566305 -0.054787762 0.31046396 0.006087529 0.09131294 -0.20088845 -0.30437645 -0.024350116
0000f0 11 04 a3 16 1d fb 28 3b 12 1e ba eb cf 18 23 d3
       0.10348799 0.024350116 -0.5661402 0.13392563 0.17653835 -0.030437645 0.24350116 0.3591642 0.109575525 0.18262587 -0.42612702 -0.1278381 -0.2982889 0.1461007 0.21306351 -0.2739388
